snake_ai_model.pth (torch, 17480 bytes, 4 tensors)

linear1.weight f4 [256, 10]
000000 76 31 ba be 58 47 d8 be fe 47 96 3e 68 8c d6 3e
       -0.3636586 -0.4224193 0.293518 0.41903996
000010 39 6f 09 c0 53 b0 83 3e 25 87 1d be 40 5e 73 be
       -2.1474135 0.25720462 -0.15383585 -0.23766422
000020 ca ae 13 be 7c 4d 6f bf a3 42 67 bd 3f d0 cb 3f
       -0.14422145 -0.93477607 -0.056460034 1.5922927
000030 ec 1e b3 bd 5f 33 d0 3d 3f f8 c5 be 5d 44 94 be
       -0.08746132 0.10166048 -0.3866596 -0.28958407
000040 e2 85 99 3b b2 61 05 be 88 a2 0b 3d 53 a8 7e 3e
       0.0046851495 -0.13025549 0.03409055 0.24868898
000050 18 ea 00 3f f0 64 8f 3e 3e 33 63 3f 39 9b 0f 3e
       0.503572 0.28006697 0.88750064 0.14024056
000060 b2 64 70 bf da 6d 41 bf 9c 6d 23 3f 89 c8 ba 3e
       -0.9390365 -0.75558245 0.63839126 0.3648112
000070 c0 b8 2f 3e 46 af 07 3f 5b 0f c0 bd bb 1f a4 bc
       0.1716032 0.5300182 -0.09377929 -0.020034662
000080 a5 3a 8d 3f ec 1a 8f be 41 3f 80 bf fe 02 05 3f
       1.1033522 -0.27950227 -1.0019304 0.5195769
000090 db 7e d9 3c 65 bf a2 be bc 26 93 be f0 d2 8c 3e
       0.026549747 -0.31786647 -0.2874049 0.27504683
0000a0 b9 71 7c 3e 51 cf 06 3d d9 1e f2 3e 01 d2 8f 3d
       0.24652757 0.032912556 0.4728916 0.07022477
0000b0 4b 09 f1 3e 74 5e 74 3f a0 85 a6 be 0e a5 fd be
       0.47077402 0.95456624 -0.32523823 -0.4953999
0000c0 c9 0d 66 be f8 18 4d bf ac 76 b7 3f 25 15 70 bb
       -0.22466196 -0.80116224 1.4333091 -0.0036633697
0000d0 3c a2 75 3f e6 52 db be 31 5d 83 3e 3c 21 bb be
       0.95950675 -0.42836684 0.25657037 -0.36548793
0000e0 b1 b2 90 3d 3d 94 79 3e 20 e6 cf 3d eb f8 f7 bc
       0.07065333 0.24372955 0.10151315 -0.03027006
0000f0 c6 59 0c 3f ce f2 17 3e cd 76 a5 3f c5 df ff 3d
       0.54824483 0.14838716 1.292688 0.124938525
000100 a6 14 5f bf 20 fa cc 3e 2d 38 f7 3c d6 fc e7 bc
       -0.8714088 0.4003458 0.030178154 -0.028318804
000110 98 fe 3e be 3c 0e 8e 3e 09 df 0a be b1 0f d2 3e
       -0.18651807 0.27745235 -0.13561644 0.41027597
000120 45 21 63 bf b7 af c8 be 50 af 07 3f dc 7c 86 bf
       -0.8872264 -0.3919656 0.5300188 -1.0506854
000130 6a 5d d3 be a4 8d d7 bd aa e9 ad bd 4c da 19 3c
       -0.41282207 -0.10525063 -0.084918335 0.009390425
000140 37 f8 85 3c 49 1d 06 bf ea 9c d5 bb e5 8e b6 3e
       0.01635371 -0.52388436 -0.0065189498 0.35655895
000150 10 a8 b4 bf 4d d6 96 be cc 92 77 bd 49 58 fa 3e
       -1.4113789 -0.29460374 -0.06044273 0.4889548
000160 fd d4 91 3e 79 01 49 bf 6d a7 4b 3e 53 68 86 3f
       0.2848281 -0.7851787 0.19888087 1.0500587
000170 27 a9 db 3e d6 89 ad 3e 24 e1 99 bd 2a 95 89 3e
       0.4290249 0.33894223 -0.07513645 0.26871616
000180 6a a4 2d 3e 01 5f 4b 3e f1 78 91 be d3 3c d1 bb
       0.1695725 0.1986046 -0.28412583 -0.0063854246
000190 b3 b3 a7 3f eb 65 13 be bb 19 83 be 00 b4 62 3f
       1.3101715 -0.14394347 -0.25605568 0.8855591
0001a0 4d 4b d5 be d6 6d 2e 3e ce 79 84 3e 09 71 bb 3c
       -0.41659012 0.17034087 0.2587418 0.022881048
0001b0 30 ff 32 bd 15 59 0f bd 7e db a9 3a 06 c4 38 3f
       -0.043700397 -0.034997065 0.001295909 0.7217411
0001c0 3e da 3e 3e e4 5c 8e 3f a0 a4 67 be 2d c4 19 be
       0.1863794 1.1122098 -0.22621393 -0.15016241
0001d0 f9 13 c0 3d 05 91 2e be 5e 8d a6 bd 77 7f 31 3e
       0.093788095 -0.17047508 -0.081324324 0.1733378
0001e0 5f 45 22 3f f2 0f 93 3f 7b 56 9a be 77 98 3d 3f
       0.633871 1.1489241 -0.30144104 0.7406077
0001f0 10 c3 6b bd 2d 0d d4 bc d7 74 01 be e1 8f 2d 3e
       -0.057559073 -0.025885189 -0.12642227 0.16949417
000200 00 91 01 be b6 17 6b 3e 81 1c a1 bf df 8a 40 3f
       -0.1265297 0.22958264 -1.2586824 0.752119
000210 cc ab f3 be 32 5f 1d 3e c3 d6 78 bf 29 77 2b be
       -0.47592008 0.15368345 -0.972027 -0.16744675
000220 d1 01 83 be 25 77 79 be 6c 7c 06 3e d3 8b 90 bd
       -0.25587323 -0.24361856 0.131334 -0.07057919
000230 c1 bc 8d 3c f2 21 7c 3d 27 0c 0c bf 18 a3 1f 3f
       0.017301919 0.06155581 -0.54706043 0.62358236
000240 1a f9 17 3f db 41 88 3d ea 7e 3d be 88 78 e0 be
       0.59364474 0.06653186 -0.18505445 -0.43841958
000250 17 1a 70 be e6 6a 04 be f7 14 81 3e 80 f6 8b 3f
       -0.23447452 -0.12931404 0.25211307 1.0934601
000260 18 36 59 bf b9 9a 05 3f 3f 18 ef bd 2c 01 03 3f
       -0.84848166 0.52189213 -0.116745465 0.51173663
000270 c3 51 e4 be 0c 9b f9 be 0a 7a 9c be 60 9a d5 bd
       -0.4459363 -0.48751104 -0.30561858 -0.10429835
000280 bc 79 99 bf c3 c2 5e 3d 59 85 a5 3e 5f 7d 46 3e
       -1.1990275 0.054384958 0.323283 0.19383763
000290 8c 61 b3 be b7 91 2e 3f 6a d0 6d bd 96 4a 57 3e
       -0.3503536 0.68191093 -0.058060087 0.21024546
0002a0 80 a0 25 3d 0c 08 3f bf 06 d0 19 3d d8 25 19 3f
       0.040436268 -0.74621654 0.037551902 0.5982337
0002b0 b8 ee 4d 3f a5 6f 0e bd 32 d1 1d be df 48 2a 3e
       0.8044238 -0.03477444 -0.15411833 0.1662936
0002c0 99 27 56 be c0 f9 41 3e 4b ec 8f be 3f af 97 3d
       -0.20913543 0.18942928 -0.28109965 0.074064724
0002d0 75 0e 36 bd b4 97 73 be af 53 a4 3e 72 63 f0 3e
       -0.04444738 -0.23788339 0.32095096 0.4695087
0002e0 5b d8 da bf 0c 1c 26 3e 1c 65 77 3e 02 4f fd bd
       -1.7097276 0.16221637 0.24159664 -0.12368585
0002f0 0c 45 9a be 49 31 1a bd 74 2c 01 3d 1f 3b 68 3f
       -0.30130804 -0.03764466 0.031536534 0.9071521
000300 5e 29 b5 3e 7c 0c 5d bf fa 41 c6 be 46 29 4e be
       0.35383123 -0.86347175 -0.3872221 -0.20132932
000310 8a ea b4 bd 91 3e 93 3e e0 ea fb bd 65 4d 50 3e
       -0.08833797 0.28758672 -0.12300658 0.20342024
000320 38 e0 35 3f cd f0 59 bf 20 17 0a bf e3 1d b1 be
       0.71045256 -0.8513306 -0.53941536 -0.34593114
000330 4a c7 2e 3e 1b 25 59 be b1 12 22 3f d9 f5 34 be
       0.1706821 -0.21205561 0.6330977 -0.17671908
000340 da fd 22 3e 1a 9d e5 3e 19 d6 9e 3f 8b 59 5f bd
       0.15917149 0.4484642 1.2409087 -0.054528754
000350 d6 ae 51 3f 52 49 0f bf a6 e3 ca be 23 9a 99 be
       0.81907403 -0.5597125 -0.39626807 -0.3000041
000360 48 85 0d 3f a8 3e 01 be d0 3c a8 bc 7f 37 3c 3e
       0.55281496 -0.12621558 -0.02053681 0.18380545
000370 5c bb 48 3f 98 cc 4a 3e f3 9a fd be df b4 42 3f
       0.7841089 0.19804609 -0.4953228 0.7605724
000380 66 88 c6 3e 0e c4 5c 3f 61 79 5f be ef 7a 89 be
       0.3877594 0.86236656 -0.21823646 -0.26851603
000390 77 a4 94 3e b8 f3 8a 3e fb 5e 96 3d 6c 61 46 bf
       0.29031727 0.27139068 0.07342335 -0.77492404
0003a0 a9 69 81 3e e1 20 ac 3f a1 07 29 bf e6 89 91 be
       0.25275925 1.3447534 -0.66027266 -0.2842552
0003b0 d9 fc 8d bd eb d1 e2 bd 60 ef 77 bd df bf 91 3d
       -0.069329925 -0.11075195 -0.06053102 0.07116675
0003c0 63 b0 44 3e f8 75 8a 3d 3e 71 04 bf 74 b0 ce 3d
       0.19207911 0.06760782 -0.51735294 0.100922495
0003d0 ac 8d 5e bf 79 ad 05 bf 2a 2d bd bd 9b 18 4d 3e
       -0.86934924 -0.52217823 -0.0923713 0.20028917
0003e0 9a d3 46 3e b9 20 3a bf ee 31 cb 3d d1 08 9f 3f
       0.19416657 -0.7270618 0.09921633 1.2424566
0003f0 ee 1d 81 be 8a 31 9c 3e 8a 8d 35 bf e4 41 42 bf
       -0.25218147 0.30506545 -0.70919096 -0.7588179

linear1.bias f4 [256]
000000 7d 06 e8 be 25 5b d7 3e cb 09 1f bf a3 3d e0 3e
       -0.4531745 0.42061725 -0.6212432 0.43797025
000010 f0 01 b3 3c 54 77 6b 3e c8 8c 2b 3e 3f b0 1a 3e
       0.02185151 0.22994739 0.16752923 0.15106295
000020 58 dc 53 be d0 8a b0 be 8a 0a 6c bd 2d 8d 2e 3e
       -0.20689523 -0.34480906 -0.05762724 0.17046042
000030 dc 7e 15 3e ea a5 46 3f 7b 12 6b 3f 01 2b 9f 3e
       0.14599174 0.77596915 0.91825074 0.31087497
000040 1a d2 19 3f a6 fb 80 3e 72 10 e1 be 81 a0 d2 3e
       0.60086215 0.25191993 -0.4395786 0.4113808
000050 65 50 4a 3f 70 95 22 3e cb 23 ce bd 0d fd 1a 3d
       0.7902892 0.15877318 -0.10065421 0.037838984
000060 f4 11 23 3f e5 3e ee 3e 85 61 c8 3e 5d 1f 26 3f
       0.6369927 0.4653236 0.39136901 0.64891607
000070 bd 15 d0 bd d0 9a 13 bf 4d 9c d3 bd f0 bc 4d bd
       -0.10160396 -0.576581 -0.103325464 -0.050229013
000080 0d 60 b8 3e 81 41 06 bf 3b 18 27 bf 41 36 26 3e
       0.3601078 -0.524437 -0.6527135 0.16231634
000090 c0 dc 49 3d 8b 34 19 bf 4c d4 11 3e db c3 45 be
       0.04928279 -0.598458 0.14241141 -0.19312994
0000a0 9d 25 91 bb 01 83 9e be 21 32 32 3d ee 74 a5 3e
       -0.0044295327 -0.30959323 0.043504838 0.32315773
0000b0 c2 fe e4 3e 38 54 dc be 1a a3 c7 3e 77 73 18 3f
       0.44725615 -0.43033004 0.38991624 0.59551185
0000c0 2e af c3 3e 02 a9 bf 3e f9 ce d3 3e 32 e1 bb be
       0.3821959 0.3743363 0.41368845 -0.36695248
0000d0 ff bc ea 3e 9d 6f db be 7b af 08 3f 46 c0 e9 3e
       0.45847318 -0.42858592 0.5339276 0.45654505
0000e0 35 62 15 3e e1 a9 72 bd be ae 33 3e c0 b8 93 3d
       0.14588244 -0.05924404 0.17547128 0.07212973
0000f0 4d b8 bb bd 6e 32 de 3d 59 22 95 be 4d 94 9f 3e
       -0.09166012 0.108494624 -0.29127768 0.31167832
000100 3c 34 f6 be f6 ee a5 be 85 69 3a 3e a5 5b c8 3e
       -0.48086727 -0.32408875 0.18204315 0.3913242
000110 57 0d a4 3e 9c 5d 97 be 42 22 e3 3e 07 8d 1b bf
       0.32041427 -0.29563606 0.44362074 -0.60762066
000120 76 47 fb 3e b0 57 a1 3e 54 1d 03 bf dd 22 e5 be
       0.49077958 0.31512213 -0.51216626 -0.4475316
000130 34 35 eb be a2 33 36 be d5 00 e9 be 07 41 02 be
       -0.45939028 -0.17793134 -0.45508447 -0.12720118
000140 d5 e1 eb be 07 20 8d bd 5b 07 55 be 6c 04 41 3f
       -0.46070734 -0.06890874 -0.20803587 0.7539737
000150 b3 1b 18 3f 6f 4a 3f bd 42 6e f9 3e 5d 51 0b 3c
       0.59417266 -0.046701845 0.48716933 0.008503285
000160 97 4a bf be b7 8a 7f be bb 95 e9 be fb 77 b6 3e
       -0.37361595 -0.2495526 -0.45622048 0.35638413
000170 ac ab cf be fe a6 69 bb da d3 39 be ce 2e 23 be
       -0.40560663 -0.0035652514 -0.18147221 -0.15935823
000180 d7 78 0e bf 41 6a 21 bf 8c df 8a be 7d 2f d8 3e
       -0.55653137 -0.63052756 -0.27123678 0.4222373
000190 7f e1 78 3e f5 e4 11 3f ac a3 df 3d b8 ae c1 3e
       0.2430477 0.56989986 0.1091989 0.37828612
0001a0 22 61 71 3e 20 01 f1 be df 91 0e 3f d6 39 97 be
       0.2357221 -0.4707117 0.5569133 -0.29536313
0001b0 17 85 22 3e ec b9 01 bf e0 43 2a 3f a5 aa 73 3e
       0.15871082 -0.5067432 0.6650982 0.23795564
0001c0 f9 c4 0a 3f dc 63 d6 3e da e9 04 be b7 c6 d1 be
       0.54206806 0.41873062 -0.12979832 -0.4097192
0001d0 b6 2f c5 be ac 1e dc be e7 0a c5 3e ea ca 60 3d
       -0.38512963 -0.4299215 0.3848488 0.054881014
0001e0 56 2f 25 3e f5 1b 77 3e 4e a8 59 be b3 42 3c 3c
       0.16131338 0.24131759 -0.2125561 0.011490512
0001f0 d3 07 92 be 3e de b2 3c 4c bb 97 3e 22 65 a4 3e
       -0.28521594 0.021834489 0.29635084 0.32108408
000200 de 40 3a bf 1d 18 52 be f8 3b 45 be 4e ba 48 3f
       -0.7275523 -0.20517011 -0.19261158 0.7840928
000210 4e 96 74 bd ce 72 81 be ab 81 3c bf 04 19 46 3c
       -0.059713654 -0.25282902 -0.7363536 0.012090925
000220 a1 f2 86 be 8b 11 c2 be 38 5c a4 be 0c 42 00 bf
       -0.26356986 -0.3790401 -0.32101607 -0.5010078
000230 64 b8 93 be 40 82 f0 3e 9e 97 f1 be 15 0e 86 be
       -0.28851616 0.46974373 -0.47185987 -0.2618262
000240 b4 a3 76 be 2e 2a a2 3e 06 11 15 bf c4 81 6c be
       -0.24085885 0.31672806 -0.582291 -0.23096377
000250 1f 85 07 3e 2c 01 fb be 6b d3 08 3f 40 bb e7 3d
       0.13234375 -0.49024332 0.534476 0.11315012
000260 5f 35 41 bf 00 11 94 3e 3e b9 01 bf 37 21 8c 3e
       -0.7547206 0.2891922 -0.5067328 0.2736909
000270 e4 b7 44 3e 94 d9 d3 be a1 42 39 bf 6a 82 de 3e
       0.19210774 -0.41376936 -0.7236729 0.43458873
000280 ea cc 1e be 01 41 26 3f 3a 3d 1d be d9 d5 4d be
       -0.15507856 0.6494294 -0.15355387 -0.20101108
000290 d7 0b a4 be 07 2d 8f be 40 3f fb be 1a 08 27 3e
       -0.32040283 -0.2796404 -0.49071693 0.16311684
0002a0 dc 00 c2 be dc d3 5a 3d 0c 3c 26 bf 65 4d d2 be
       -0.3789128 0.0534247 -0.64935374 -0.41074672
0002b0 3d 85 0d be 1f bf 28 bf 39 43 d2 3e ea 27 8a 3d
       -0.13820358 -0.6591663 0.41066912 0.06745894
0002c0 12 86 9b 3d ad 06 1f bf bf 1e 9c be 82 c6 83 3e
       0.07593931 -0.6211956 -0.30492207 0.25737387
0002d0 0f 32 3e 3e b7 c3 fd 3e 38 df 3b 3e 88 8f 90 3e
       0.18573783 0.4956338 0.1834687 0.28234506
0002e0 af c8 2d bf 07 0d 16 3e f9 d2 c6 be ac 74 65 3e
       -0.67884344 0.14653407 -0.38832834 0.22407788
0002f0 d3 01 02 bf 31 d2 a3 3e 19 7f 4c 3d f6 ac d2 be
       -0.50784034 0.319963 0.049925897 -0.41147584
000300 fa c0 78 3e f2 a6 c2 bc 00 8b 40 be 9a f5 e3 be
       0.24292365 -0.023761246 -0.18803024 -0.44523317
000310 29 6f c5 be 9a b9 2c 3d 2f c7 f8 3d b6 8b a2 3d
       -0.3856137 0.04216919 0.12147366 0.07936804
000320 66 a4 b0 be 63 c9 c4 3e d2 18 2c 3f 26 f9 2c 3f
       -0.34500426 0.38434896 0.6722537 0.6756767
000330 aa 21 b1 bd 84 3b 1b 3f 12 9e 0a 3f 48 b9 33 3f
       -0.08648999 0.6063769 0.54147446 0.7020459
000340 89 8c e5 3d b8 d4 77 bc fa f2 42 bf 11 9a f4 3e
       0.112084456 -0.0151264 -0.76152 0.47773793
000350 6e d9 a9 be dd 10 18 bf 9c c5 ae 3d 12 65 80 3c
       -0.33173698 -0.5940073 0.08533785 0.015673194
000360 dd 1f be 3e ae 99 69 be 1a 90 fe 3d 1c cd 81 be
       0.37133685 -0.2281253 0.12429829 -0.253518
000370 20 f3 8e 3b f5 d7 8b be 3f a7 bb bd f0 54 de 3d
       0.004362479 -0.273132 -0.09162759 0.10856044
000380 c2 b1 a3 3e 2c cc d8 3e a6 6c b1 be 8e fa f3 be
       0.31971556 0.4234327 -0.34653205 -0.47652096
000390 39 ec 57 3e 4d 1a 2a 3f b3 cc 9c 3e 06 02 3f bf
       0.21086206 0.6644638 0.30624923 -0.7461246
0003a0 5e 95 ac 3e 8e 16 ec be 74 01 25 3f b0 8c be 3e
       0.33707708 -0.46110958 0.6445534 0.3721671
0003b0 36 b0 b6 be 1f cd 62 be 0d 31 24 bf fb 65 dd be
       -0.35681313 -0.2214856 -0.64137346 -0.43241867
0003c0 47 76 f5 be bf 3b 88 3e 33 0d 34 3f ab 11 9a be
       -0.479418 0.26608083 0.7033264 -0.30091605
0003d0 a8 e2 21 3e 01 e0 a3 be 5c 1f 1c 3e a1 25 2c 3f
       0.15809119 -0.3200684 0.15246338 0.6724492
0003e0 33 31 ba be 1e 87 06 3f 01 c7 83 be f9 60 1b bf
       -0.3636566 0.5254992 -0.25737765 -0.60694844
0003f0 b2 c6 dc 3e cd 3e 29 be 16 d0 1e bf 68 99 0d 3d
       0.43120342 -0.16527863 -0.62036264 0.034570128

linear2.weight f4 [4, 256]
000000 61 96 a9 3e 34 02 55 3e 59 b0 09 bf f0 5d 56 3e
       0.33122543 0.20801622 -0.5378471 0.20934272
000010 69 df 20 bf 9d e5 37 bf 44 a3 b3 bd 70 a7 02 bc
       -0.62840897 -0.7183474 -0.08771375 -0.0079744905
000020 2e ba 9c 3e 70 e6 5f bd e8 b7 4a bf 3b d0 dc 3d
       0.30610794 -0.05466312 -0.7918687 0.10781904
000030 45 f1 08 be 4d 43 56 3f 8e 5d 70 3e 71 db b9 3d
       -0.13373287 0.8369644 0.23473188 0.09075058
000040 6c 39 1b 3f 6d a2 b7 3d 1c e5 cf 3d 03 d7 ef 3d
       0.60634494 0.08966527 0.10151121 0.11710932
000050 61 42 31 bf 57 3a 11 bf a8 55 13 bf 61 9b 82 be
       -0.6924191 -0.56729645 -0.57552576 -0.2550917
000060 7f 4c a4 3e 0f 10 1f 3e 89 43 81 bf f3 8c 19 bf
       0.32089612 0.1553347 -1.0098735 -0.59980696
000070 d4 32 37 be bd 89 19 3f fe af 55 bf 00 f6 03 3e
       -0.17890483 0.59975797 -0.8347167 0.1288681
000080 a5 a7 8c be 14 b6 a2 bd 49 58 03 3f 6e ac 91 3e
       -0.27471653 -0.07944885 0.5130659 0.28451866
000090 6f 28 35 3e a8 c1 8b be cd 50 47 be ab fa 59 be
       0.17691205 -0.27296185 -0.19464417 -0.21287028
0000a0 f5 a9 7a 3e 0c 3e 3a bd b3 3d c1 3d 5b fc 4d bf
       0.24478896 -0.04546933 0.09435596 -0.8046319
0000b0 0c c9 cf be f4 6b 85 bc e9 0a 74 3e 77 9c 8b 3e
       -0.40583074 -0.016286828 0.23832287 0.2726781
0000c0 cd 4e 2d bf ca 29 2c 3d 87 66 e3 3d a9 ab 6c bf
       -0.67698365 0.04203204 0.1110354 -0.9244943
0000d0 2f 52 47 bf 08 a1 08 bf 8a 9e 0a bf 14 08 1f 3e
       -0.7785978 -0.53370714 -0.5414816 0.15530425
0000e0 48 6c de be 5a e1 a7 bd 60 cc 5b 3e b7 ba 42 3d
       -0.43441987 -0.08197279 0.21464682 0.047541346
0000f0 bf 74 11 be 56 ee ee 3d c4 5c 90 3d cf 3f dc 3c
       -0.14204691 0.11666553 0.07048944 0.026885895
000100 ec 15 fb be a6 59 06 3d 87 c4 67 3e 67 83 6a bf
       -0.49040163 0.03280034 0.22633563 -0.91606754
000110 38 1f a0 3d 86 d9 d2 3e 0e ec 6a 3e 0b 57 07 bf
       0.078184545 0.41181582 0.2294161 -0.5286719
000120 d2 97 b4 bd 26 b6 c8 3e e1 5f 1d bf a1 65 36 bf
       -0.0881802 0.39201468 -0.61474425 -0.71248823
000130 f3 03 40 bd 64 89 42 3f 63 ef 40 bf 0f 9c 43 bf
       -0.046878766 0.7599089 -0.75365275 -0.7641
000140 52 6e 43 bf d6 0f 6a 3e b0 fd 3e 3d 47 b2 70 bf
       -0.7634021 0.22857603 0.046628654 -0.9402203
000150 ce 33 88 3e bb d4 d4 be 58 b5 e3 be 65 7e 1c bf
       0.26602024 -0.4156855 -0.44474292 -0.6113036
000160 c2 0b 46 bf f2 c0 4f 3e dc fc b5 be 88 60 22 3e
       -0.7736169 0.20288447 -0.3554448 0.15857136
000170 55 4b 40 bf 7c 2d ff 3d 9c 9c 90 be aa 46 14 bf
       -0.7511495 0.12459847 -0.28244483 -0.57920325
000180 c5 ce aa bd 46 a5 c3 bd f4 20 63 3e 82 9c 16 3e
       -0.083402194 -0.09553008 0.2218054 0.1470814
000190 bc d1 6d 3e f6 76 f9 be 96 19 f2 3e b4 0d 2e 3e
       0.23224539 -0.48723572 0.47285146 0.16997415
0001a0 16 bf 2a bf 58 37 0d 3f 8e e0 53 3e b5 c8 3b bf
       -0.66697824 0.5516257 0.2069113 -0.7335313
0001b0 88 a6 5e be 44 89 aa 3e 96 82 54 3e 75 e3 6c bf
       -0.21743214 0.3330785 0.2075294 -0.9253457
0001c0 da 05 b2 be e6 f9 fe 3e 17 79 4b bf 01 9b 7a bd
       -0.3477009 0.49800032 -0.79481643 -0.06118298
0001d0 cd 48 01 bf f1 bb 6d bf f1 b5 a7 3e ee 53 a8 3d
       -0.5050171 -0.928649 0.32755998 0.08219133
0001e0 8c a2 37 3e 40 28 65 3e fc e7 b4 bc ef 99 1b 3d
       0.179331 0.22378635 -0.022083275 0.0379886
0001f0 12 05 0a 3f 40 a2 5c be 39 bc b5 3e fa 86 87 3d
       0.53913987 -0.21546268 0.35495165 0.066175416
000200 97 07 f0 be 00 55 62 3d 1c 53 b9 be 8f 22 a7 be
       -0.4688079 0.055256844 -0.3619622 -0.32643554
000210 ef df 1d bf 50 96 9e bc d4 68 be be b1 2b 04 3e
       -0.6166982 -0.019358784 -0.37189353 0.12907292
000220 99 f4 a2 3d e0 1e 7a b9 f2 7e b2 3e 17 2e 0a bf
       0.079568096 -0.0002385336 0.34862477 -0.5397658
000230 fe 18 8e 3e 04 b9 c5 3e 73 9a 19 3f aa 9a fa 3b
       0.27753443 0.38617718 0.60001296 0.007647832
000240 4e 5c 9c 3d 9a 7c 15 3e 27 95 00 3f 13 ec 0b 3f
       0.07634793 0.14598313 0.5022759 0.54657096
000250 6a a0 b2 3d 52 57 4f 3d 6f 0c a5 3e 28 3a 5c bf
       0.08722003 0.050620385 0.3223605 -0.8602624
000260 2e ef de be 22 58 4a be a2 75 05 bf a1 c6 0f 3e
       -0.43541855 -0.19760182 -0.5213262 0.14040615
000270 5b f9 b0 3d b2 2f 07 3d 0e 48 85 bf f8 45 11 be
       0.08641311 0.03300447 -1.0412614 -0.14186847
000280 ee a8 18 3d c1 06 68 be 10 6b 29 bf 6a 9e fc be
       0.03727048 -0.22658826 -0.6617899 -0.4933961
000290 4b b3 71 bf c9 03 79 3f 7e 17 b5 be 52 0b 00 bf
       -0.94414204 0.972714 -0.35369486 -0.50017273
0002a0 57 f7 63 be 51 20 63 bd ae da 07 bd ff ce d8 3e
       -0.22262321 -0.05545074 -0.033167534 0.42345425
0002b0 dd ad 3e 3e 93 f2 38 be 56 cf b2 3e 17 4a df bd
       0.18621011 -0.18061285 0.3492381 -0.109028034
0002c0 91 a0 2d 3f 51 7c 19 bf fb 07 c6 3d 8c 30 df be
       0.6782313 -0.59955317 0.09669491 -0.43591726
0002d0 08 a7 de be f7 94 0e 3f 89 8a fc 3e b3 17 b0 3e
       -0.4348681 0.5569605 0.49324444 0.3439308
0002e0 1b f1 8a 3e fc 19 da 3e 69 77 ee be 0e 53 51 bf
       0.27137074 0.4259795 -0.46575478 -0.81767356
0002f0 f4 f9 8a be 04 94 94 3e a2 19 04 3e b4 46 5d bf
       -0.27143824 0.29019177 0.12900403 -0.8643601
000300 f4 15 d8 be 08 e5 91 bd d9 b2 ad be ec cf 0e 3f
       -0.4220425 -0.07123762 -0.33925512 0.55786014
000310 c4 50 56 3e 49 a3 95 3e 5a 92 45 bf d6 39 db 3c
       0.20929247 0.2922614 -0.7717644 0.026760977
000320 1c a9 23 bf e5 89 83 bf 5e 2a 63 bf 30 2e 96 3e
       -0.63929915 -1.0276457 -0.8873652 0.29332113
000330 a6 89 6b bf 18 f1 43 bf 0d 4c 3b 3e 14 a4 3e bf
       -0.9200691 -0.76539755 0.1829073 -0.74469113
000340 21 60 af be 85 03 34 be e1 28 78 be b8 dc 70 bf
       -0.34253028 -0.17579468 -0.24234344 -0.9408679
000350 73 00 90 bf 17 65 1f bf 87 b2 a6 bd f7 0f 79 3e
       -1.1250137 -0.62263626 -0.0813952 0.24322496
000360 ac e4 b7 3d fc 99 68 3f 8d 26 4c 3d bc 98 58 3d
       0.089791626 0.9085996 0.049841452 0.052880034
000370 7b 49 d5 be 52 d7 ae 3e 36 6d 06 be f8 b1 36 bf
       -0.41657624 0.3414865 -0.13127598 -0.7136531
000380 2f 37 fa 3e 5b 61 91 be 2e 5f 29 bf 7d b7 49 3e
       0.48870227 -0.2839459 -0.6616086 0.19698901
000390 8f 57 cb 3e d8 7e 84 3e 92 ce 0c 3f 03 9a 4a bf
       0.3971524 0.25878024 0.550027 -0.79141253
0003a0 76 e3 89 bf e3 25 47 3e a1 7a 43 bf 69 31 10 3e
       -1.077254 0.19448046 -0.7635899 0.14081348
0003b0 be 42 8b 3d 0f 85 95 3d e4 18 e2 be 11 e5 ca 3e
       0.067998394 0.073007695 -0.44159615 0.3962789
0003c0 7a 38 f8 bd 6f 20 8e 3d c1 45 18 bf 13 d6 4a bf
       -0.12120147 0.0693978 -0.59481436 -0.792329
0003d0 c5 a2 e3 3d 10 05 18 3f 12 c7 58 3e ea 22 e9 be
       0.1111503 0.59382725 0.2116969 -0.4553445
0003e0 61 7b 5e bf bf 05 00 3e 19 e1 67 be 59 d4 db be
       -0.8690701 0.12502192 -0.22644462 -0.42935446
0003f0 c2 90 38 bf 51 0e 20 bf 6d c0 21 bf bd 9d 2e bf
       -0.7209588 -0.62521845 -0.63184243 -0.6820944

linear2.bias f4 [4]
000000 a6 98 a0 3e c0 5c b1 3e c0 40 d8 3e 37 ec dd 3e
       0.31366462 0.34641075 0.422369 0.4334428
