snake_ai_model.pth (torch, 17480 bytes, 4 tensors)

linear1.weight f4 [256, 10]
00000000: 443b e43d d5eb 9c3f e2ed cfbc 0afd 1c3f
00000010: afc6 1fbf c468 d73e 692f 113f 9a9a cabe
00000020: dfb3 34be cd08 e23d 0bae 9b3e e3b9 4a3e
00000030: ec66 c13d dcb5 d0bd a7d7 e13e d5aa c83f
00000040: 3c13 f8be 6968 debb d819 6b3d 6f01 99be
00000050: 18ad 7ebf b160 413e 725d cf3e b47d 1f3e
00000060: 1e38 1ebd cc74 ad3d bf11 46bd b8ed 56be
00000070: 5e79 5dbe 4e3a 2a3e 8aa0 acbd 60bf 1bbf
00000080: 3717 b7bf d16b 5a3f 9653 573e df02 59be
00000090: 7202 3fbd fa5c 97bf 827a 0f3e 688e 6bbd
000000a0: 8b5f 8b3f 78c2 873e 73e5 82be 7d3c 84be
000000b0: c419 2ebf 4881 c3bf df38 b93e 71c9 96bd
000000c0: 268b 6a3e c507 e73b 9292 2f3f f0a7 3cbf
000000d0: 50da aa3e 1f82 8c3e 2c6e 2fbf 7606 7b3f
000000e0: 3730 843d fd66 eebe 9576 893e 1075 4fbf
000000f0: e853 813e ebb6 2dbc 9aad 85be 8cba 8f3f
00000100: cf08 1fbf 5dd2 393f 241f 2b3f 2849 04bf
00000110: 3cf1 363e 3ceb adbe cd85 ce3e 6ec4 9bbe
00000120: d6a0 db3f ec59 3bbe 2783 bfbe dc80 b1bc
00000130: fa5c 803e 5bfb c33e c01d 08be 4436 5fbe
00000140: 7454 443f d4cf d63d a182 5c3f f8b4 313e
00000150: 93d9 97bf f149 97bf 3521 633f 6f19 223f
00000160: 426c 583e e7f6 38bd 9448 a53e b984 483f
00000170: cd71 4abf 4183 4d3f 188d b2be cda8 42be
00000180: 813c ccbe 6778 e23e f4eb a13d 1659 183e
00000190: c1b8 60be d4ef 7fbe 5a80 e23f 2da4 043e
000001a0: 9efd 703f 1ac0 013f 0e8a d93d 551f 943e
000001b0: 7c75 e63d d2db a8be 4c0e df3e 4ccd 9c3e
000001c0: d145 943e 469a 083f 9ec1 0c3f 5f12 6d3f
000001d0: e639 0ebf d60c 30bf b2b0 5d3e 5d07 8cbe
000001e0: a156 09bf f580 d73f 4738 8abe 6bfb d63d
000001f0: 3fd6 5c3e 141d 57bf 07dd c43e e6eb 0b3e
00000200: c0ac c6bd bfa7 753e 74f5 ac3e d9b6 4b3e
00000210: 23bc c9bd 5097 a23e 06f4 3e3f 6879 bb3e
00000220: db74 03bf d246 2abe b041 efbc 6aee 2ebf
00000230: 31a2 c43f 297a 023f b2c8 533f 24cb 91bd
00000240: 9dd6 623d 5a8e e33e 14d7 843e 1258 dcbe
00000250: 8abc 623e 37be 2abf 56fa c93f c092 743e
00000260: 7a94 a33f 0e11 e23e cff5 2d3e 5202 aa3e
00000270: fb4b a1be d301 45be 8454 4abe c73a dbbd
00000280: 2f1e 19be 903a c73f 9e1a f53e a5e5 59bf
00000290: 720f 00bf 0355 163e 557f 69be 9c77 aabe
000002a0: 2862 3abe 7f3a 48bd a1f0 9a3f 7568 213e
000002b0: b344 833f 9a40 d9bd e1c3 603e 3765 d53e
000002c0: 4697 443e 2abe 72bd 4141 8fbe b0a0 72be
000002d0: 326c a83e 34ce 2a3e d848 bebd 9e3b 9b3f
000002e0: c57c 98be 3366 f73e 20a7 b73e f248 96be
000002f0: f7d6 21be 383f b5bd a70a a83d b7b8 933e
00000300: 3a5a b63e 50c4 8c3f b6be aa3f 6824 8d3e
00000310: 786b bdbe 8623 a9bd 40b4 59be 8bcb 07be
00000320: 7d19 05be 9540 823d b2c9 253f 2e11 b83e
00000330: 61f4 2e3f 859a 283f 3fdd 80be 88ae 323d
00000340: e4de 04be f1db 36bf 6502 bc3f f91e 203e
00000350: 5410 773e 6fa7 a33d fc93 d83e 3d06 793f
00000360: c13f 2b3e ebc9 13be 0deb 8a3e 72c3 c8be
00000370: 45d5 243f 3eeb 5c3e feae 0c3f 87f6 173f
00000380: bbd0 79bf 0279 4ebf 54eb 3d3f 328b 093f
00000390: 845b 033e a331 343d 0dcd 543e 3014 09bd
000003a0: 8f21 253f 162f 863d a1c1 803f bbf4 583f
000003b0: 1907 833c 5a4d 2ebe 8be1 9dbe 1ce3 32bf
000003c0: aca3 853d 1b37 063e eeb7 3a3f 8e3c 6c3e
000003d0: 20be dd3f 8272 01bf cca1 c0bd d9f6 653e
000003e0: 26f9 113e a2ba 9bbe 41f0 9f3f 07ec e63e
000003f0: a931 84be 08dc e6bd 9584 833e 97a5 893f
0.111441165 1.225947 -0.025381986 0.61323607 -0.6241254 0.42072117 0.5671297 -0.39571077
-0.1764674 0.11036835 0.30406222 0.19797473 0.09443459 -0.10190937 0.44109842 1.5677134
-0.48452175 -0.006787349 0.057397693 -0.29883906 -0.9948287 0.18884541 0.4050098 0.15575296
-0.038627736 0.08469543 -0.048356768 -0.2098912 -0.21628329 0.16623804 -0.08429058 -0.6083889
-1.430396 0.85320765 0.21027979 -0.21192501 -0.04663319 -1.1825249 0.14011577 -0.057508856
1.0888532 0.26515555 -0.2556568 -0.258274 -0.68008065 -1.5273829 0.36176202 -0.07362641
0.22904643 0.0070504867 0.68583024 -0.7369375 0.33369684 0.27443025 -0.68527484 0.98056734
0.06454509 -0.4656295 0.26848283 -0.81038 0.25259328 -0.010602693 -0.2610901 1.1228805
-0.62122816 0.72586614 0.6684439 -0.5167413 0.17865461 -0.33968532 0.40336457 -0.304233
1.7158458 -0.18296021 -0.3740475 -0.02166789 0.25070935 0.38277707 -0.13292599 -0.21798044
0.76691365 0.10488859 0.86136824 0.1735419 -1.1863273 -1.181944 0.88722545 0.6332006
0.21135047 -0.04515734 0.32281935 0.7832752 -0.79079896 0.802784 -0.3487327 -0.19009705
-0.3988991 0.44232485 0.079063326 0.14877734 -0.21945478 -0.24993831 1.769542 0.12953253
0.9413699 0.5068375 0.10622035 0.28930154 0.11252877 -0.3298021 0.43565595 0.3062538
0.28959516 0.533604 0.54982936 0.9260616 -0.55557096 -0.68769586 0.21649435 -0.27349368
-0.5364781 1.683623 -0.2699606 0.10497173 0.21566103 -0.84028745 0.3844988 0.13664207
-0.09700918 0.23989771 0.33781016 0.1989397 -0.09850337 0.31756067 0.745911 0.36616063
-0.5135018 -0.16628578 -0.029206127 -0.6833254 1.5361997 0.5096765 0.8272811 -0.07118824
0.055380452 0.44444543 0.25945342 -0.43035942 0.22142234 -0.66696495 1.5779521 0.23884106
1.2779686 0.44153637 0.169883 0.33204895 -0.3150328 -0.19238977 -0.19758803 -0.1070457
-0.1495292 1.5564747 0.4787187 -0.85116035 -0.5002357 0.14680867 -0.2280248 -0.3329438
-0.18201506 -0.04888391 1.2104684 0.15762503 1.025534 -0.10608025 0.21949722 0.41678783
0.19198331 -0.059263386 -0.27979472 -0.2369411 0.32895046 0.16680223 -0.092912376 1.2127569
-0.29782692 0.4832016 0.35869694 -0.29352528 -0.15804659 -0.08849949 0.08205157 0.28851864
0.35615712 1.099741 1.333945 0.27566838 -0.36996055 -0.08258729 -0.21260166 -0.13261239
-0.12998004 0.06359974 0.6476089 0.35950607 0.6834164 0.6586078 -0.25168797 0.043623477
-0.12975651 -0.71429354 1.4688231 0.15636815 0.24127322 0.0799092 0.42300403 0.97275144
0.16723539 -0.14432494 0.27132455 -0.39211613 0.64387923 0.21574113 0.54954517 0.59360546
-0.9758412 -0.80653393 0.7418721 0.5372802 0.12827879 0.04399265 0.20781346 -0.033466518
0.6450433 0.0655195 1.0059091 0.8474843 0.015994595 -0.17021695 -0.30836138 -0.6987779
0.065253586 0.13106959 0.72936904 0.23069975 1.7323647 -0.5056535 -0.0940586 0.22457446
0.14255199 -0.30415827 1.2495195 0.4510195 -0.25819138 -0.112724364 0.2568709 1.0753659

linear1.bias f4 [256]
00000000: 2fd1 27bf 631f 92be 11ec b83e 97cb 5c3f
00000010: 4e00 c4be 4c4f 79be 7988 8ebe 70fe e63d
00000020: 1466 78bf a415 a03e 07a8 673f ab5c 26bf
00000030: 1b15 30be 1b17 eabe 72b4 a3be 9e2c febe
00000040: d25d 193f bc13 2c3e 3869 0ebf fd74 80bf
00000050: 2eb7 853e a648 a13e fbf4 85bf d0fd f93e
00000060: 254a 35bf dc70 a33e 3a5b 62bd 04b2 a93e
00000070: 41d9 55bd a31f c3be a5ff df3e 4e32 78bd
00000080: 7cc5 27bf 5d6f 923e 01ce 0f3e f2f8 0a3f
00000090: b7e8 7a3e 8934 32bf 8bda 6bbe 5043 6abf
000000a0: c33b ccbe 25be 16bf 1205 77bf 1276 e43d
000000b0: 795d 46bf 5376 8bbe fcdc 763d 8bc4 44be
000000c0: ed6a 5fbf 7d43 c73e 8e4b dabe b6d0 4a3e
000000d0: 4d27 e6be 1dee ec3e a2c0 59bf 71ed 953f
000000e0: 0fa2 4f3f 8b18 80be 4953 9ebf e718 14bd
000000f0: 5562 5d3f c152 383f 6ce6 b2be b1b3 0f3e
00000100: 8986 95bf 804d 0c3f 3921 f7be d4c5 8bbe
00000110: 355e 84bf 0c0a 083f 0d97 82bf 23dd 30be
00000120: 69c8 dbbe 688b 7d3e 18ba 623f 8cf7 8c3d
00000130: 39ea a73f 220d 11bf 94fa 1cbf aecb 4ebf
00000140: 62e3 56bf 8bd7 2c3e 7d61 26bf e74b c43e
00000150: 782e 853d 6eda 13bf 5f1c 02bf 3f3b 543f
00000160: 19b7 0b3f ba73 4bbf 576b f53e d15d 17bf
00000170: 009b 5bbf 754c 57bf 262e 2ebe 10ad 87be
00000180: dcf2 74bf 883a 013f 46fb 4bbf 81c9 0cbf
00000190: ca5e 6b3e fbda 3b3f 60cf 103f 4843 7abe
000001a0: eb1f 8c3f c528 33bf 1c0a 5e3f 1cca 0bbe
000001b0: 03c8 72bf d9da b4be 053b 0f3f e1d6 3c3f
000001c0: d599 dcbe 3c6a 92bf 8a7f f43e e820 503f
000001d0: 2458 99be 3343 b2be 303f 8c3f 115f 3dbf
000001e0: 1633 a9be 1ff2 dcbe c954 efbe c829 37be
000001f0: 838a cf3e dc06 02bf 518b 733e 68b1 17bf
00000200: 8dfe ea3e a73b 31bb e749 53bf c5d5 80bd
00000210: 9546 9e3e f9a2 c03e 1c54 a83d 1dd6 24bf
00000220: f9c8 7bbe 29ac d93e 59a3 6c3f c5e9 423e
00000230: 9975 9cbe 82ec 1fbf e0f5 04be 68f8 b03e
00000240: 9ba0 353f 8e5a 8d3e 7ddf 213f ef2f 423f
00000250: f25e a73e a16b 5bbf dec5 0e3f 9d11 b53e
00000260: 6c1d 913e e4bc 6cbf 029d 013e 7697 24bf
00000270: b614 0cbf e9d5 39bf 618b fdbd 0ba9 bcbd
00000280: d6a4 103f 3f71 8fbc 1104 3a3e 9356 82be
00000290: dd7a 11bf 4716 a4be 8d67 213f 7a2d 4cbf
000002a0: d456 8fbf dae9 a7be 0f3b 38bf b4e2 153e
000002b0: d408 283f 7f31 423f 3545 fdbe 142b 1e3f
000002c0: 5af6 f43e 6bad 113f b3be 82bd 1521 313f
000002d0: eb06 8bbf ca88 2bbf 3e91 a93d 9b70 1a3f
000002e0: 67ab 063f 7975 563f 9bd2 0abf 3061 51bc
000002f0: 625a 8cbe 45c2 d73e 8004 803f 0ae0 5cbf
00000300: 4176 ad3e 7e31 26bf 2db0 4b3e ba89 c43e
00000310: 6d63 7a3f 3e05 49bd 8a28 6bbf c4c8 f03e
00000320: cc7b 00bf 61f0 fb3e 304a 0ebf 4dc6 95bc
00000330: b76a 82be 72ff af3e ac35 2ebf 54ef 0c3f
00000340: 173e 70bf 6b90 e13e 2c5c 193f 6540 c53e
00000350: 6a37 97bf 885f 323f b7ef 643e e15e 34bf
00000360: 6bad e03e a4c6 033f a220 14bf 22bd 88be
00000370: 0b63 263d 0a83 2b3f 7d4a a73e f7eb 573f
00000380: c510 35bf 2465 37bf 442c edbd 8f3b 353f
00000390: 5945 38bf 3c66 8a3e fad5 6fbf a1c8 ad3e
000003a0: 4ed4 89bf 9181 313e db71 6d3b 95a6 883f
000003b0: baea 543e 4bf5 ebbe 9076 e13e 38e3 923e
000003c0: 2208 6e3f 9490 40bf de54 1f3f ed10 61be
000003d0: 4675 053f 2623 6dbf 437f fa3e c80d c8be
000003e0: 887e 45be 569a cc3e 66d0 0cbf 4ada f9be
000003f0: fe39 24be 2f16 1e3f a0bb b8be 469c 24bf
-0.65553564 -0.2853957 0.36117604 0.86248153 -0.38281482 -0.24346656 -0.27838495 0.11278999
-0.9703076 0.3126651 0.90490764 -0.6498515 -0.17195551 -0.45720753 -0.31973606 -0.49643415
0.59908783 0.16804403 -0.556293 -1.0035702 0.26116318 0.3150074 -1.0465387 0.48826456
-0.7081626 0.31922042 -0.05526278 0.33143628 -0.052209143 -0.38110074 0.4374973 -0.06059485
-0.6553571 0.28600588 0.14043428 0.5428611 0.24502836 -0.6961141 -0.23032586 -0.9150896
-0.39889345 -0.5888389 -0.9649211 0.111553326 -0.7748638 -0.27238712 0.06026934 -0.192156
-0.8727253 0.38918677 -0.4263577 0.1980618 -0.4495186 0.46275416 -0.8505956 1.1713086
0.81106657 -0.25018725 -1.2369167 -0.03615656 0.8647817 0.7200127 -0.34941423 0.1403339
-1.1681682 0.54805756 -0.48267534 -0.27299368 -1.034125 0.5314033 -1.0202347 -0.17271857
-0.42926338 0.2476021 0.88565207 0.06883153 1.3118354 -0.56660664 -0.6131985 -0.8077954
-0.8394071 0.16879098 -0.64992505 0.3833916 0.06503004 -0.5775517 -0.5082454 0.829029
0.5457626 -0.7947346 0.47933456 -0.5912753 -0.85783386 -0.8410104 -0.17009792 -0.26499224
-0.95683074 0.50479937 -0.7968029 -0.5499497 0.22985378 0.7338101 0.5656643 -0.24439728
1.094724 -0.69984084 0.86734176 -0.13651317 -0.94836444 -0.35323218 0.5594943 0.7376538
-0.43086115 -1.143867 0.47753555 0.8130021 -0.29950058 -0.34816894 1.0956783 -0.73973185
-0.33046788 -0.43153474 -0.46744373 -0.17887032 0.40535364 -0.50791717 0.23783614 -0.59255075
0.45897332 -0.0027043612 -0.8253464 -0.06290773 0.30913225 0.37624338 0.082191676 -0.6438921
-0.24588384 0.4251416 0.9243675 0.19034488 -0.3055847 -0.6247026 -0.12984419 0.3456452
0.7094819 0.2760815 0.6323164 0.7585439 0.32689625 -0.85711104 0.5577067 0.35365
0.2834276 -0.92475724 0.1265755 -0.6429361 -0.547191 -0.72592026 -0.123801 -0.0921193
0.5650152 -0.017510055 0.18165614 -0.25456676 -0.568281 -0.32048246 0.6304863 -0.7975689
-1.1198373 -0.32795602 -0.71965116 0.14637262 0.6563847 0.75856775 -0.49466863 0.6178448
0.478442 0.5690524 -0.06384029 0.69191104 -1.0861486 -0.670056 0.08279656 0.6032807
0.5260529 0.83773 -0.5422761 -0.012779519 -0.27412707 0.42140403 1.0001373 -0.86279356
0.33879283 -0.6491927 0.19891424 0.38386327 0.9780796 -0.049077265 -0.9185873 0.47028172
-0.501889 0.49206832 -0.5558195 -0.018283034 -0.25472042 0.34374577 -0.68050647 0.55052686
-0.9384474 0.44055495 0.5990627 0.38525692 -1.1813786 0.6967702 0.22357069 -0.70457274
0.43882307 0.51474977 -0.57862294 -0.26706797 0.0406218 0.66996825 0.32674018 0.8434443
-0.70728713 -0.71638703 -0.115807086 0.70794004 -0.71980816 0.27031124 -0.9368588 0.3394213
-1.0767915 0.17334582 0.0036231193 1.0675837 0.20792666 -0.4608558 0.44035769 0.2868898
0.9298116 -0.7522061 0.6223887 -0.21979113 0.5213207 -0.9263176 0.48925218 -0.39073014
-0.19286549 0.399615 -0.5500549 -0.48799354 -0.16037747 0.617526 -0.36080647 -0.64300954

linear2.weight f4 [4, 256]
00000000: 03f7 583c 61b7 41bf 8490 ba3e 3227 4b3e
00000010: e4b9 99bf 5600 a6be 6827 20be 9e1a 88be
00000020: a596 38bf a42f b93d f2ed e63e 9933 1bbf
00000030: 7420 be3e 93cb c6be cec2 6dbf 63d9 43bf
00000040: b28d d13e d897 00bf 9678 d9bd ffe1 5a3f
00000050: 0e88 353b 715b a4bf 62de d0be 23d1 86bd
00000060: 6b25 c33e 45ca 90bf c0ab 853e 353a 003f
00000070: b7b8 a73e 3631 8d3e 71f3 8f3e 48ef fcbe
00000080: 5cad cabe e2f6 813e 966b df3d deeb 97bf
00000090: 75b1 113e e88a 5ebf 4210 df3d 577a b9bd
000000a0: 18a0 a8be 094b 3c3e 067b 0ebf 7d4d aebf
000000b0: 1919 063f f9e9 213d 6f90 663f 63bf b5bf
000000c0: 8465 9cbe b2d8 bebe 097f b0bf 5956 693d
000000d0: 9acf abbf 099b b93e 2685 16bf 1302 10bf
000000e0: 9e66 e23e 20ec eabb 000f bbbe af24 e6bd
000000f0: 510c a03e 7b46 e93e eb6f 8e3e 7a4c 063f
00000100: 66e3 c2be e7f6 7abf 1204 cb3e 80f5 0e3b
00000110: 1f06 17bf f5fd efbd fcde 0bbf 8bfe 0c3d
00000120: 62cb 2ebe bfe3 52bf a6de 3d3f 0525 2ebf
00000130: eb3e 1c3f b21d 97ba 1fd3 043d ec16 233e
00000140: bd24 d4be 1a13 103f 203a fb3d 7771 673e
00000150: c5e6 e43e 19ae 52bf 87fc 973e b2be dc3e
00000160: 4e48 0a3e 8901 c5be fcf1 8b3e adaf 0abf
00000170: 7c29 48be 3836 e6be 7bab 063f e8e9 ec3c
00000180: 8f4c 163e e37b f43e bd2e 50be 6117 70bf
00000190: c84c 903e 6eab 253f 464c ce3e f1a8 3cbe
000001a0: 26af 03bf e6ee 89bf 869c edbe 7c3a 153f
000001b0: 346a 05bf c907 273e b273 e13e 8a23 f93e
000001c0: 9bc0 3bbf 28bd 27be 44fe 4abf b709 263f
000001d0: 043b 473e 5aa8 c83e e43d 293f 0ff6 50bf
000001e0: 5220 15bf f55a a6bd f7e0 d0be 39a9 a73d
000001f0: ca35 efbe ed03 0f3e 9221 023e b0a3 96bf
00000200: 6ca3 103f e0a8 803c 1ec2 02bf fc0a 19bf
00000210: 5df9 f13e 2b06 9e3e 5bd5 5ebe 689e ffbe
00000220: e0c4 c43e e039 b83e 7902 423f 465d 9c3e
00000230: 4634 8d3e 7706 a3bf 13cc 8cbf dd43 7bbf
00000240: 0046 f73e f96f ff3d 417f b53e 53d9 f13e
00000250: e80f 563e 4a7a bfbe b9b9 68bd d388 e13e
00000260: fa6f fcbe c78e 1abf e5d4 2d3f 18b1 16bf
00000270: 39f0 86bf 7ee1 92bf e9d7 ec3e e927 c9bf
00000280: 4542 1c3f ec53 8cbf 3c35 abbe cb52 66bf
00000290: 08ca 8dbe c116 b63e d170 acbf 86b7 01bf
000002a0: 09b8 47bf e9a1 7e3f 8d8a 9dbe 4478 f9be
000002b0: 8094 cd3e dc0a f7bd ceba cd3e 9c81 f83e
000002c0: 6fc9 003f 29eb 5ebf add4 253f 376b 9f3e
000002d0: db3b f3bd 231c 043f 0015 2fbf 4587 0cbf
000002e0: 34ba ea3e c8af d03e 6384 50bf 0fba d83e
000002f0: 1a2d 7e3e 7074 4fbf b84b 46bf 6b19 29bf
00000300: d586 03bf 200b 4fbf 7727 2a3f c70f 6cbf
00000310: eb3e 4b3f 643f 513f 07fa 84bd e8cf aebe
00000320: 836b 993e 8d51 a6be 6192 84bf 534c 81be
00000330: 9aeb 90bf 7c60 92bf 80b3 18bf a798 c43e
00000340: ca7e acbf 5068 76be 7aa7 e4be 691f 7f3e
00000350: 931e 91be 1a8d 0bbd 9c21 533f fb4d 6ebe
00000360: 2c80 09bf e7c2 99bf e78b 50bf d043 593e
00000370: 99dc acbf 1172 fc3e a380 93bf 9289 713e
00000380: 6737 b4be b907 03bf ca59 a8bf 4bc0 e03e
00000390: 0ecf 26bf e50e 9bbc 2a64 c5be ca11 193f
000003a0: 0446 70be fbcf eabc 2020 41bf eb1b 553f
000003b0: 7bfd 7cbe 9b87 613f 287f 5fbc 9c29 143f
000003c0: bbc6 23bf 75d3 1e3e d56b 84bf d4db 283c
000003d0: 0aea 04bf 7fc6 f0be bd2c 923e c18d 843e
000003e0: 51c4 b7bd 5814 c3bf 164d 043e 8589 74bf
000003f0: 3aa6 78bb 5d31 083f 9599 80bf 8bb5 89bf
0.013242486 -0.7567044 0.36438382 0.1983917 -1.2009854 -0.3242213 -0.15640032 -0.26582807
-0.72104865 0.0904229 0.45103413 -0.60625607 0.37134135 -0.3882719 -0.92875373 -0.7650358
0.40928417 -0.50231695 -0.10618703 0.8550109 0.0027699503 -1.2840406 -0.40794665 -0.065828584
0.38114485 -1.1311728 0.26107597 0.50088817 0.32758114 0.27576607 0.2811542 -0.49401307
-0.39585388 0.2538367 0.10909192 -1.1868856 0.1422785 -0.86930704 0.10891773 -0.090565376
-0.32934642 0.18387999 -0.5565647 -1.3617398 0.52382046 0.039529774 0.9006414 -1.4199032
-0.305462 -0.372747 -1.3788768 0.056967113 -1.342273 0.36251095 -0.5879692 -0.56253165
0.44218916 -0.0071692616 -0.36534882 -0.112374656 0.31259397 0.45561585 0.27819762 0.52460444
-0.38064116 -0.98032993 0.39651543 0.002181381 -0.58993715 -0.1171836 -0.5463712 0.03442244
-0.17069772 -0.8237876 0.7416786 -0.6802524 0.61033505 -0.0011529236 0.032427903 0.15926713
-0.4143428 0.56279147 0.12266946 0.22601877 0.44707313 -0.822969 0.2968485 0.4311424
0.13504145 -0.38477734 0.27333057 -0.5417431 -0.19547075 -0.4496324 0.5260541 0.028920129
0.14677642 0.47750768 -0.20330329 -0.93785673 0.2818358 0.64714706 0.40292567 -0.18423821
-0.5143913 -1.0776031 -0.4640848 0.58292365 -0.5211518 0.16311564 0.4403358 0.48659927
-0.7334077 -0.16380751 -0.7929423 0.64858574 0.19456106 0.39190942 0.6611006 -0.81625456
-0.5825244 -0.081228174 -0.40796635 0.081865735 -0.46720725 0.13966341 0.12708119 -1.1768703
0.5649936 0.015705526 -0.5107745 -0.59782386 0.47260562 0.3086408 -0.21761076 -0.49925542
0.38431454 0.35981655 0.7578502 0.30539912 0.27578944 -1.2736348 -1.0999779 -0.98150426
0.48295593 0.12472529 0.3544865 0.47236118 0.20904505 -0.37397987 -0.056817744 0.440497
-0.4930418 -0.6037411 0.67902976 -0.58863974 -1.054206 -1.1475065 0.46258476 -1.5715305
0.6103862 -1.0963111 -0.33439052 -0.8997008 -0.276932 0.35564235 -1.3471929 -0.5067066
-0.7801519 0.99465805 -0.30769768 -0.48724568 0.4015236 -0.12062618 0.40181583 0.48536384
0.50307363 -0.87077576 0.6477764 0.31136486 -0.11876651 0.51605433 -0.6839142 -0.54893905
0.45845187 0.4075911 -0.81452006 0.4232945 0.24821892 -0.81037045 -0.7745929 -0.6605441
-0.5137761 -0.8087635 0.6646647 -0.92211574 0.7939288 0.8173735 -0.064930014 -0.34142995
0.29964837 -0.32484093 -1.0357171 -0.25253543 -1.13219 -1.1435695 -0.59648895 0.38397714
-1.3476193 -0.2406323 -0.44659024 0.24914326 -0.2834364 -0.03407011 0.8247316 -0.23271935
-0.537112 -1.2012604 -0.81463474 0.21217275 -1.3504821 0.49305776 -1.1523632 0.23587635
-0.3519852 -0.5118366 -1.3152401 0.43896708 -0.6515969 -0.018928 -0.38552982 0.5979277
-0.23464209 -0.028663626 -0.75439644 0.83245724 -0.2470607 0.8809754 -0.013641156 0.5787599
-0.63975114 0.15510352 -1.0345408 0.010306317 -0.51919615 -0.4702644 0.28549758 0.258894
-0.08972991 -1.5240583 0.12920031 -0.9552234 -0.0037940876 0.5320032 -1.004687 -1.0758528

linear2.bias f4 [4]
00000000: 4ad0 413f 6ab3 203f 5124 3c3f 5c6e 183f
0.7570845 0.62773764 0.73492914 0.59543395
