snake_ai_model.pth (torch, 9800 bytes, 4 tensors)

linear1.weight f4 [128, 10]
00000000: 971a 273f ea11 cb3a 2b6c d13c 37f7 2f3f
00000010: e552 273f 8662 f2be cc49 e4be f61c 803e
00000020: f09b 49bd 0a90 7abf 63a5 0d40 9443 64bf
00000030: e42e 9abf 87c5 e6bf 4a15 12be 1fcc 863e
00000040: 0496 1740 a4b8 3dbe 1689 66be 5b4c b73e
00000050: 3312 823e 2ee6 853f 2afd f7bf aef3 583f
00000060: bef2 fc3e 7186 24be 1633 60be cba8 09bf
00000070: 6267 ebbd b270 463c 7933 1a3c 9b7d 363f
00000080: eca9 0f3f 835b 9dba e3cd 0abf 888f 333f
00000090: 4d71 553e c766 77be 5c6a 1f3e fc94 49bf
000000a0: ae35 743f c350 193f 91dc e73e bc7b 0d3e
000000b0: c9af 2bbf 0a9d 053e 350d 5cbe d7a1 4d3c
000000c0: f10c 0abe 68ba e0be 4cfa 76be 603b e53f
000000d0: 2729 643f 4461 59bf c2cf 063f 7f35 b0be
000000e0: 6d21 2dbf b0d6 d23e ee72 d5bd 54df 913e
000000f0: 59a2 e0bc c24f 003f 9ddd 4f3f 1135 d93c
00000100: 870e 233f ae7b 4fbf 29eb 6b3e 3cff acbe
00000110: 5130 9bbe 7462 adbe b3f1 e5be 412e 0240
00000120: c626 9ebf 857a fbbe a04a 0a3f 4cc3 683e
00000130: 3f1b d0bf c43f d73e a067 3dbd 5c09 71be
00000140: 9b81 693f b866 053f 22a9 b73e 2126 373f
00000150: 6a3b 24bf d918 fe3e e0df 6ebe e78a 2a3e
00000160: 3418 d13d 504b 98be 497a 3cbf 15c3 0a3f
00000170: a16c 1bbf 9aa2 6e3f 2ea3 abbe 4b6d a5be
00000180: f3c8 203f 004f 0f3f 1038 b43c 9b21 1fbf
00000190: 832f 833f a43b 063f db8a 5e3f e7b1 b7be
000001a0: 56d1 b73e 0090 8b3f 4a72 f13c 60a6 1bbf
000001b0: 015f 92be f9a5 0ebf 2357 b73e b730 0c3f
000001c0: 5791 f73e c6c3 a8bb 9c21 12bf 5140 803f
000001d0: 3ee3 483d 16d2 16be 286a f23d 6e14 49bf
000001e0: df0d b43d a087 ac3f 46d1 133f 49e6 3d3f
000001f0: eb1b f03e ccec 403f 6afd 793e 79b7 11be
00000200: c38c 09be 836e 2a3e 4768 913f 6d48 76bf
00000210: 3a51 183f 8640 7b3e 995a 003f f9e8 03bf
00000220: 5e60 cf3f c895 443e 17a1 8f3e 132f 17be
00000230: 20a5 8d3f db10 ac3f 3e9a d4be 0506 583e
00000240: 2353 013f 9d42 313e 5407 0e3f f310 ac3d
00000250: 72d4 5c3e 7253 8ebf d961 01be 16d5 edbe
00000260: 6106 35bd ba47 0140 5710 a8be 7de3 183b
00000270: 2d8a e8bd 3ccc 3cbf 0049 333c 2eb4 863e
00000280: bdaf dbbe 0f85 07c0 511a 72bf 7660 e63f
00000290: 5f4e 7c3e 6148 313e 7b96 d23e 9639 d8bf
000002a0: fc09 373e 1d84 1cbf c677 a43f 76e0 42bf
000002b0: 4c91 bfbe 8fd7 0440 3d83 b8be 0bc7 c23e
000002c0: 5a1b 963e a10c 0bbf ca68 433e dfd9 b43d
000002d0: 7d06 273e 96f5 9dbe 09d3 dd3f 3429 10c0
000002e0: d6d8 e3be 0854 293f e227 6ebe 4f18 d63f
000002f0: c85e 483d 7fa9 0cbf 82d6 993f 58a4 5c3e
00000300: d415 803e 94ac 573e 3bd2 10bf f5ca 343f
00000310: ec53 bbbd 5b5c d83c b2dc 8cbd d9a4 bfbe
00000320: e13b 053f 2efe 923f 6034 cebe 83aa 373f
00000330: 0665 353f c8a3 20bf 3b97 463e 4a16 473f
00000340: e028 033e 5bc5 31be 901b da3f a703 933e
00000350: c2ee 96bf 1736 023f aaa1 04bf bd58 a7be
00000360: a703 083f b8dc 01bf 8eeb ecbd fe9c 8f3d
00000370: d3ee 9f3c 8dfe eb3f 762d 59bf 7c68 a3bf
00000380: a796 f73e ba38 5d3e 8cf4 23bf cc53 3abe
00000390: 501b 18bd dcbd 09bf df8d 90be 748c 003f
000003a0: b4b6 533f 3248 d83e 2ed6 5f3e a27c d13d
000003b0: c64a 1d3f 03ce c33e 504f 013e c056 3f3e
000003c0: acb1 7ebe 530b 87be 29c6 38bf c553 de3f
000003d0: 428b 02bf 58d8 37bf def1 243d 8109 88bd
000003e0: b033 f03c a630 d3be 8a26 12bd 071d 3240
000003f0: 9f08 e4be 6ffc 82bd b8b1 43bd 9525 72bc
0.6527495 0.001549301 0.025564274 0.68736595 0.6536086 -0.47340792 -0.44587553 0.25022095
-0.04922098 -0.97876036 2.2132194 -0.89165616 -1.204556 -1.802903 -0.14265934 0.26327607
2.3685312 -0.18527466 -0.22513232 0.35800442 0.2540451 1.046087 -1.9374135 0.84746826
0.49403948 -0.1606691 -0.21894488 -0.5377318 -0.11494328 0.01211183 0.009411686 0.7128541
0.56118655 -0.0012005422 -0.5422041 0.70140886 0.20844002 -0.241603 0.15567917 -0.7874296
0.9539441 0.5988886 0.45285466 0.13816732 -0.670651 0.13048187 -0.21489413 0.012550793
-0.13481499 -0.43892217 -0.24118918 1.7908745 0.89125293 -0.8491404 0.52660763 -0.34415814
-0.6762913 0.4117942 -0.10422312 0.28490698 -0.027421163 0.501217 0.8119753 0.026514562
0.6369404 -0.81048095 0.23038925 -0.33788478 -0.303103 -0.33864176 -0.44910964 2.034073
-1.2355583 -0.49116912 0.5402012 0.2273075 -1.6258315 0.42040837 -0.046241403 -0.23538727
0.9121339 0.5210986 0.35871226 0.71542555 -0.6415316 0.49628332 -0.23327589 0.1665455
0.102096945 -0.2974496 -0.7362409 0.5420392 -0.6071263 0.9321686 -0.33522934 -0.32309946
0.62806624 0.5597992 0.021999389 -0.6216065 1.0248874 0.52434754 0.86930627 -0.35877916
0.35901898 1.090332 0.029473443 -0.60800743 -0.28588107 -0.55722004 0.35808668 0.5476183
0.48353073 -0.005150291 -0.57082534 1.0019628 0.04904484 -0.14728579 0.11836654 -0.785468
0.08791708 1.347889 0.577412 0.7417951 0.468963 0.75361323 0.24413076 -0.14230146
-0.13432603 0.1664372 1.1359948 -0.9620426 0.5949894 0.24536332 0.5013824 -0.51527363
1.6201284 0.19197762 0.2805259 -0.14764051 1.1066017 1.3442644 -0.41523927 0.21096046
0.5051748 0.17310567 0.5547993 0.0840167 0.21565416 -1.1119215 -0.12634982 -0.46451634
-0.044195537 2.0200028 -0.32824966 0.0023328953 -0.1135448 -0.73749137 0.0109426975 0.2630934
-0.42907515 -2.1174963 -0.94571406 1.7998188 0.24639271 0.17312767 0.41130432 -1.6892574
0.17874902 -0.6113909 1.2849052 -0.7612375 -0.3741554 2.0756567 -0.36037627 0.38042483
0.29317743 -0.54316145 0.19082943 0.08830618 0.16311069 -0.3085143 1.7330028 -2.2525148
-0.4450137 0.66143847 -0.23257402 1.6726168 0.048918515 -0.5494613 1.2018588 0.21547067
0.25016654 0.21061927 -0.56570786 0.7062219 -0.09146866 0.026411226 -0.06878032 -0.37430456
0.5204449 1.148382 -0.40274334 0.71744555 0.70857275 -0.6274991 0.19393627 0.77768385
0.12808561 -0.17360441 1.7039661 0.28713724 -1.1791613 0.50863785 -0.5180918 -0.3268489
0.53130573 -0.50727415 -0.11568366 0.07012366 0.01952306 1.8437058 -0.8483499 -1.2766261
0.48357126 0.2160367 -0.64045024 -0.18196028 -0.037135422 -0.5380533 -0.2823324 0.50214314
0.8270066 0.4224258 0.21859047 0.1022885 0.6144222 0.38243112 0.12627912 0.18685436
-0.24872464 -0.26375827 -0.7217737 1.7369314 -0.5099374 -0.7181449 0.040269725 -0.06642438
0.029321522 -0.41248053 -0.035681285 2.7830217 -0.44537827 -0.06395804 -0.047776908 -0.014779468

linear1.bias f4 [128]
00000000: 7af4 683e 8ec6 483f 2656 d33f 29ab 2b3e
00000010: eac0 53bf 6c1e 3c3f 5dcc 89bf a68c a43e
00000020: 9766 83bf 3aeb 983e 8785 5c3d 2e92 753d
00000030: 3c13 5dbf cec6 e43f 5b72 4fbe 1599 ee3d
00000040: b05f a53f 003f 0d3f beef 333f 96eb 4cbf
00000050: 2f66 a7be b489 ab3f b2e1 123f b5ba c1be
00000060: fdb9 5a3f c8c5 5c3e 9503 3f3f d2f6 f23e
00000070: 7c1f 253f 2331 b2be 6852 9fbd a51a fc3f
00000080: 885b fa3e d5fb 723f cc4d a7be 9cf3 e13d
00000090: e54c 9c3f 181b 053f d4be 073f 979f fe3e
000000a0: d756 8ebf c850 373f cd7d 66bf 1a7f a13f
000000b0: 69c0 16bf 8959 e73f 326c c1be 1eb1 63bf
000000c0: 460c 27bd e94e 51bf ce86 653f 91be 6c3f
000000d0: 5de6 3f3f e2d9 1abf f03a 413e e329 2f3f
000000e0: 3ade 3fbf b83d 84bc 4ec3 3fbd 4532 0ebf
000000f0: def3 d2bd e5e0 003f 5334 1b3f bc74 c93e
00000100: c115 b93e d3ad 3b3f 4a2d a23f c05a 7a3f
00000110: 6140 663f b232 01bf efe9 cb3f b3cd 3fbf
00000120: 070b 303e a4e6 903f 228d b13f 6b9f 9fbe
00000130: 97f6 50bf 4d08 9f3f 047f 463e 2f16 c9bc
00000140: 4259 a7bf be5a b13f 405d 88bf 4afa 3b3f
00000150: 40be a53e 03fc e3be 37a2 2bbf 2f02 a53e
00000160: 2c52 463f 9d1d 03bf e44b 3ebf 1365 603e
00000170: 24c3 633d c1c4 1d3e 9200 4c3f baca 3cbe
00000180: 381b 903d adf9 1abf f257 dbbe 31a7 23bf
00000190: 7b97 243f 381c 763f 4cab f2bd 362e a23f
000001a0: c2e9 14bf eebc b6be 56b7 493e b9cd 8f3f
000001b0: db51 843f 4798 e0be 550e f4be d5b9 173f
000001c0: 3607 8e3c 159c 27bf 0168 1cbd 6c5c 143f
000001d0: e43e 93be ac06 12bf 44d8 043e 27a7 a83f
000001e0: e07a 863f 86f5 213f 1b16 953e 02c9 1bbf
000001f0: 5e23 703f 196d 3abe 9e7b 48bf 67f5 2cbf
0.2274951 0.7842797 1.6510665 0.16764511 -0.8271624 0.7348392 -1.0765492 0.32138556
-1.0265683 0.29866964 0.05383828 0.05995386 -0.86357474 1.787317 -0.20258467 0.11650292
1.2919827 0.55174255 0.7028769 -0.80046976 -0.32695147 1.3401399 0.57375634 -0.3783776
0.85440046 0.21559823 0.7461484 0.47453934 0.64501166 -0.34803113 -0.077793896 1.9695631
0.48897958 0.94915515 -0.32676542 0.11032793 1.2210966 0.51994467 0.53025556 0.49731132
-1.1120251 0.7160764 -0.90035707 1.2616913 -0.58887345 1.8074199 -0.3777786 -0.88942134
-0.04078319 -0.8176103 0.8965882 0.9247828 0.7496088 -0.6048871 0.18870139 0.6842329
-0.74948466 -0.016142711 -0.046817116 -0.55545455 -0.1030042 0.5034316 0.60626715 0.39346874
0.3614941 0.7331211 1.2670071 0.97794724 0.89941984 -0.5046798 1.5930766 -0.7492325
0.17191707 1.1320386 1.3871195 -0.31176314 -0.81626266 1.2424408 0.1938439 -0.02454671
-1.3074114 1.3855817 -1.0653458 0.73428786 0.32371712 -0.44528207 -0.67044395 0.32228228
0.77469134 -0.5121706 -0.7433455 0.21913557 0.055606022 0.15407087 0.7968837 -0.18436709
0.070364416 -0.60537225 -0.42840534 -0.6392699 0.6429364 0.9613681 -0.118490785 1.2670352
-0.58169186 -0.35691017 0.19698843 1.1234657 1.033748 -0.43866178 -0.47667184 0.5926793
0.017337423 -0.6547254 -0.038185123 0.57953525 -0.2875892 -0.5704143 0.12973124 1.3176011
1.0506248 0.63265264 0.29118428 -0.6085359 0.93803966 -0.1820568 -0.78313625 -0.67561954

linear2.weight f4 [4, 128]
00000000: c6c5 91bf b939 8ebf b376 4b3f 373a 063d
00000010: 8244 9bbe adfe 6e3f 750c 1f3e bdc6 0f3f
00000020: be1c adbe 752f a63e 125c 87bf 0acc 3dbd
00000030: b1b7 a7be 1296 753f 2789 4bbf 02a7 943d
00000040: 1bef 803f 23c6 f7bd a699 833e 88e8 f4be
00000050: c64e 44bf a58a d9bd 037f 0a3f c93c 0e3f
00000060: cd5d 643e ef84 533d f401 e5be 9b18 5a3f
00000070: 992f b43e a16c 48be b150 ebbe df5b 113f
00000080: ba8e 0a3e 628d 423f 13c8 aabe 48b9 45bf
00000090: 6dae 6f3f ad36 b33e 4a35 82bf 9f21 5d3f
000000a0: 98ed e0be 76a9 80bf bef3 b6be 5859 14bf
000000b0: b56e 0dbf dd8e 3b3f b095 54bf ec24 f1be
000000c0: cf17 a53e da4b 82be e11c 083d 9575 863e
000000d0: a178 183f aba3 bbbe b46d 2bbd 5f34 0e3f
000000e0: 1045 803c 4d7e eabe 4c97 71be 9670 79bf
000000f0: d885 1bbf 1547 c83d d578 b7be dfbf 6bbf
00000100: a82c 5d3f 65ec 263f 9bbd 7c3f 28b0 073f
00000110: 68a3 203f 3065 86be abb4 713f 56dd 12bf
00000120: efef 5cbf 4110 cebc de84 b73e 518f 0abf
00000130: 5b10 1bbe 0b8a 743f 21df 9c3e 0af9 febc
00000140: aeef febe 4b16 5c3e d6f0 acbe 4441 51be
00000150: 3dc6 5e3f 8bfe 6a3d 7d85 07bf c647 83bf
00000160: 17ed 2c3f 74c8 afbe 5dff 19bf 2ce5 75bf
00000170: 5a2a c7be c3c1 d03e 31ea c73d 36d9 7dbe
00000180: 5ff2 c33e 0a46 63bd 17d2 d43b 110d 93be
00000190: 0635 053f 6fc6 033f 8aa5 8fbe 1d58 7f3e
000001a0: 872b b83d 6360 d73d ecd8 e43e 5449 a43f
000001b0: 8afc 113f cf81 d8bd 43c3 c3bc 000d 403f
000001c0: 809c 60bf 1bfb 8cbe 0720 44bf 0042 0e3e
000001d0: 892b 14bf 426e c1bd efbf 70bf 9fca 853f
000001e0: b752 843f 6d68 18bf be8d 53bf 0a3a a4bd
000001f0: f328 95bf b843 68be 1071 b4bd 2ba9 08be
00000200: b4d4 eb3d 7fd8 633f 1098 323e 49d5 d5be
00000210: fd5f 50be 3a0a aabe be28 e5be b4d8 d5be
00000220: cef0 61be cffe b1bd 806b 21be 52a8 e4be
00000230: 58a1 0dbf 30f3 dc3e ba8a c2be 4616 ee3e
00000240: 55d2 683f 328a 083f 12ca 5c3f a6cd 81be
00000250: 837e bbbe 7acb 233f 867b b0be 512a 33be
00000260: ca95 b63e 8d32 88bf 3596 be3b ac82 523f
00000270: c54f c4be 18d9 bcbe 3ecf 1d3d 8294 443f
00000280: 42d1 15bd 4325 9e3e f56b 88bd dccb c03d
00000290: e6bb 883e 28cf 67be 18ef 1e3e e539 2d3f
000002a0: 1abf febe b52f d23e e742 9ebd 4579 8b3f
000002b0: aa45 57be f38a 233e eb87 41be 9af7 0a3e
000002c0: 6932 9cbe 634b 34bf 6510 70be 988d 403f
000002d0: 21c5 533e 44f5 5abe 082f 29bf 8d6e 9dbc
000002e0: ccd5 d7be f2c3 a8be 1579 c5be 950b e3be
000002f0: dac2 e0bd 282f 093f 9621 c0bc 148e 2d3d
00000300: b765 99bd 682c 35be 5918 5dbe 908c fb3e
00000310: d304 9d3f 0ef7 28bf 6001 403f 39d1 d8be
00000320: 9009 e8bd 43a7 973e 7b9d 5abd 61df babd
00000330: b077 dfbe bba0 8b3e 5f42 1cbf 9f7a 03bf
00000340: 44af 14bf ccda 82bf 0363 79bd 81de 3cbf
00000350: 44a8 813e 723b 63bf 8234 d4be 45e5 1a3d
00000360: 4b64 173f 7595 16bf 0202 b3be ec53 0dbe
00000370: a0a1 723e 28b2 1dbf d640 05c0 463f 7a3e
00000380: 58a9 3d3f 3bc3 93be b7fa 473a 9f02 ef3d
00000390: 959c dd3c c5bd d83e 960f 18bf cb07 853f
000003a0: 3128 8ebe cdfa 42bf 6505 e9be 1974 0b3e
000003b0: d6f3 883f 2396 05bf fa67 45be 03a8 40be
000003c0: b64e 8cbd ff87 aabe 20b4 0bbe 8598 143f
000003d0: 8599 cebd 4643 4cbf cb08 0dbd baa6 9a3e
000003e0: 584f 893e 6240 2b3e 5ebf 1abe 7df8 a9be
000003f0: bdb5 e03e 7b14 2cbe 302c b1be 4d1f 00bf
-1.1388481 -1.1111366 0.79477996 0.03277036 -0.30325705 0.93357354 0.15532096 0.56162626
-0.3381099 0.32458082 -1.0574973 -0.046337165 -0.32757333 0.95932114 -0.7950615 0.07258417
1.0072969 -0.120983385 0.25703162 -0.47833657 -0.766827 -0.106221475 0.54100055 0.555615
0.22301407 0.051640447 -0.44728053 0.85193795 0.35192564 -0.19572689 -0.4596 0.5678081
0.13531008 0.75996983 -0.3335577 -0.7723584 0.9362553 0.35002652 -1.0172513 0.86379427
-0.4393127 -1.0051715 -0.35732836 -0.5794883 -0.5524705 0.7326487 -0.83040905 -0.47098482
0.32244727 -0.25448495 0.033230666 0.26261583 0.59559065 -0.36648306 -0.041852668 0.5554866
0.015657932 -0.45799485 -0.23592871 -0.9743742 -0.60751104 0.09779183 -0.35834375 -0.9208965
0.86396265 0.6520446 0.98726815 0.5300317 0.6274934 -0.26249075 0.944163 -0.5736898
-0.8630361 -0.025154235 0.35843557 -0.54124933 -0.15142958 0.95523137 0.30638984 -0.03112461
-0.49792236 0.21492879 -0.33777493 -0.20435053 0.8702124 0.057371657 -0.5293806 -1.0256279
0.6754927 -0.3433262 -0.6015528 -0.96052814 -0.388995 0.40772828 0.09761465 -0.2478989
0.38270852 -0.055486716 0.006494771 -0.28720906 0.5203403 0.5147466 -0.28055984 0.24935956
0.08992677 0.10516431 0.44696748 1.2834878 0.5702597 -0.10571634 -0.023896819 0.75019836
-0.877388 -0.27535328 -0.7661137 0.13892365 -0.5787893 -0.09444858 -0.9404287 1.045246
1.0337743 -0.5953434 -0.82638156 -0.080188826 -1.1653122 -0.22682083 -0.088106275 -0.13345782
0.11515179 0.8900222 0.1744082 -0.41764286 -0.20349117 -0.33210927 -0.44757646 -0.41766894
-0.22064516 -0.08691179 -0.15763664 -0.44659668 -0.55324316 0.43154287 -0.37996465 0.46501368
0.9094594 0.5333587 0.86245835 -0.2535221 -0.36619958 0.63982356 -0.3446924 -0.17496611
0.35661155 -1.0640427 0.005816246 0.8223064 -0.3834211 -0.3688438 0.03852772 0.76789105
-0.036576517 0.30887803 -0.06661216 0.09413883 0.26705855 -0.22637618 0.15520895 0.67666465
-0.49755174 0.41052023 -0.07727604 1.0896384 -0.21022668 0.15970974 -0.18899505 0.13571015
-0.3050721 -0.7042753 -0.23443754 0.75216055 0.20680667 -0.21382624 -0.6608739 -0.019217754
-0.42155302 -0.32961994 -0.3856894 -0.44344774 -0.10974665 0.5358758 -0.023453515 0.042371824
-0.07490104 -0.17692721 -0.21591319 0.49130678 1.2267097 -0.66001976 0.750021 -0.42347124
-0.11329949 0.29619798 -0.05337284 -0.091246374 -0.43646002 0.27271065 -0.61038774 -0.5135898
-0.58079934 -1.0223022 -0.06088544 -0.73777014 0.2532369 -0.8876258 -0.4144631 0.037816305
0.5913741 -0.58821803 -0.3496247 -0.13801545 0.23694468 -0.6159997 -2.0820823 0.244382
0.74086523 -0.28859887 0.0007628607 0.11670422 0.027052203 0.42332283 -0.5939878 1.0393003
-0.2776504 -0.7616394 -0.45511928 0.13618506 1.0699413 -0.52182215 -0.19277945 -0.18814091
-0.068509504 -0.33306882 -0.13642931 0.58045226 -0.10087875 -0.7979015 -0.034432214 0.30205327
0.26818347 0.16723779 -0.15112063 -0.33197394 0.43888655 -0.16804688 -0.34604025 -0.5004776

linear2.bias f4 [4]
00000000: 560f 003f 1f2b 483f 3ea4 833e b7f7 1c3f
0.500234 0.781908 0.25711244 0.6131548
